{"modelTopology":{"class_name":"Model","config":{"name":"model2","layers":[{"name":"decoder_input","class_name":"InputLayer","config":{"batch_input_shape":[null,2],"dtype":"float32","sparse":false,"name":"decoder_input"},"inbound_nodes":[]},{"name":"dense_Dense1","class_name":"Dense","config":{"units":3136,"activation":"linear","use_bias":true,"kernel_initializer":{"class_name":"VarianceScaling","config":{"scale":1,"mode":"fan_avg","distribution":"normal","seed":null}},"bias_initializer":{"class_name":"Zeros","config":{}},"kernel_regularizer":null,"bias_regularizer":null,"activity_regularizer":null,"kernel_constraint":null,"bias_constraint":null,"name":"dense_Dense1","trainable":true},"inbound_nodes":[[["decoder_input",0,0,{}]]]},{"name":"reshape_Reshape1","class_name":"Reshape","config":{"target_shape":[7,7,64],"name":"reshape_Reshape1","trainable":true},"inbound_nodes":[[["dense_Dense1",0,0,{}]]]},{"name":"decoder_conv_t_0","class_name":"Conv2DTranspose","config":{"filters":64,"kernel_initializer":{"class_name":"VarianceScaling","config":{"scale":1,"mode":"fan_avg","distribution":"normal","seed":null}},"kernel_regularizer":null,"kernel_constraint":null,"kernel_size":[3,3],"strides":[1,1],"padding":"same","data_format":"channels_last","activation":"linear","use_bias":true,"bias_initializer":{"class_name":"Zeros","config":{}},"bias_regularizer":null,"activity_regularizer":null,"bias_constraint":null,"name":"decoder_conv_t_0","trainable":true},"inbound_nodes":[[["reshape_Reshape1",0,0,{}]]]},{"name":"leaky_re_lu_LeakyReLU5","class_name":"LeakyReLU","config":{"alpha":0.3,"name":"leaky_re_lu_LeakyReLU5","trainable":true},"inbound_nodes":[[["decoder_conv_t_0",0,0,{}]]]},{"name":"decoder_conv_t_1","class_name":"Conv2DTranspose","config":{"filters":64,"kernel_initializer":{"class_name":"VarianceScaling","config":{"scale":1,"mode":"fan_avg","distribution":"normal","seed":null}},"kernel_regularizer":null,"kernel_constraint":null,"kernel_size":[3,3],"strides":[2,2],"padding":"same","data_format":"channels_last","activation":"linear","use_bias":true,"bias_initializer":{"class_name":"Zeros","config":{}},"bias_regularizer":null,"activity_regularizer":null,"bias_constraint":null,"name":"decoder_conv_t_1","trainable":true},"inbound_nodes":[[["leaky_re_lu_LeakyReLU5",0,0,{}]]]},{"name":"leaky_re_lu_LeakyReLU6","class_name":"LeakyReLU","config":{"alpha":0.3,"name":"leaky_re_lu_LeakyReLU6","trainable":true},"inbound_nodes":[[["decoder_conv_t_1",0,0,{}]]]},{"name":"decoder_conv_t_2","class_name":"Conv2DTranspose","config":{"filters":32,"kernel_initializer":{"class_name":"VarianceScaling","config":{"scale":1,"mode":"fan_avg","distribution":"normal","seed":null}},"kernel_regularizer":null,"kernel_constraint":null,"kernel_size":[3,3],"strides":[2,2],"padding":"same","data_format":"channels_last","activation":"linear","use_bias":true,"bias_initializer":{"class_name":"Zeros","config":{}},"bias_regularizer":null,"activity_regularizer":null,"bias_constraint":null,"name":"decoder_conv_t_2","trainable":true},"inbound_nodes":[[["leaky_re_lu_LeakyReLU6",0,0,{}]]]},{"name":"leaky_re_lu_LeakyReLU7","class_name":"LeakyReLU","config":{"alpha":0.3,"name":"leaky_re_lu_LeakyReLU7","trainable":true},"inbound_nodes":[[["decoder_conv_t_2",0,0,{}]]]},{"name":"decoder_conv_t_3","class_name":"Conv2DTranspose","config":{"filters":1,"kernel_initializer":{"class_name":"VarianceScaling","config":{"scale":1,"mode":"fan_avg","distribution":"normal","seed":null}},"kernel_regularizer":null,"kernel_constraint":null,"kernel_size":[3,3],"strides":[1,1],"padding":"same","data_format":"channels_last","activation":"linear","use_bias":true,"bias_initializer":{"class_name":"Zeros","config":{}},"bias_regularizer":null,"activity_regularizer":null,"bias_constraint":null,"name":"decoder_conv_t_3","trainable":true},"inbound_nodes":[[["leaky_re_lu_LeakyReLU7",0,0,{}]]]},{"name":"activation_Activation1","class_name":"Activation","config":{"activation":"relu","name":"activation_Activation1","trainable":true},"inbound_nodes":[[["decoder_conv_t_3",0,0,{}]]]}],"input_layers":[["decoder_input",0,0]],"output_layers":[["activation_Activation1",0,0]]},"keras_version":"tfjs-layers 1.0.0","backend":"tensor_flow.js"},"format":"layers-model","generatedBy":"TensorFlow.js tfjs-layers v1.0.0","convertedBy":null,"weightsManifest":[{"paths":["./decoder2.weights.bin"],"weights":[{"name":"dense_Dense1/kernel","shape":[2,3136],"dtype":"float32"},{"name":"dense_Dense1/bias","shape":[3136],"dtype":"float32"},{"name":"decoder_conv_t_0/kernel","shape":[3,3,64,64],"dtype":"float32"},{"name":"decoder_conv_t_0/bias","shape":[64],"dtype":"float32"},{"name":"decoder_conv_t_1/kernel","shape":[3,3,64,64],"dtype":"float32"},{"name":"decoder_conv_t_1/bias","shape":[64],"dtype":"float32"},{"name":"decoder_conv_t_2/kernel","shape":[3,3,32,64],"dtype":"float32"},{"name":"decoder_conv_t_2/bias","shape":[32],"dtype":"float32"},{"name":"decoder_conv_t_3/kernel","shape":[3,3,1,32],"dtype":"float32"},{"name":"decoder_conv_t_3/bias","shape":[1],"dtype":"float32"}]}]}